data.pth (torch, 8151 bytes, 6 tensors)

l1.weight f4 [8, 112]
00000000: 230b 6a3f 993d a4bd c572 6d3e 8443 93bc
00000010: 2e2f fe3d 1914 a3be d3d6 aabc cb7a 653e
00000020: 04ad b53e e20a a7be 8a8d f03e 046f 8f3e
00000030: cd76 983e dc36 353d 93bb 89bc 6155 883f
00000040: 5eca bd3d 1c8e 82bd 4bbf 813d 700e d8be
00000050: b49f ee3e 79c9 95bf 27a8 9dbd a663 533e
00000060: 4e50 5fbd 7f92 263e f990 e33d 3bae c3be
00000070: c696 f9bd 48c5 a93a 771c d4bd 17b6 193f
00000080: 7d3f f6be 25f6 cd3c ffe9 513e 27cd 633e
00000090: ec28 d33e fae7 333e e38e f03e 9e7f 9a3f
000000a0: 5ded 243c 551c 60be 8b72 a8bc 3916 91bd
000000b0: 8b36 423f 10c9 3e3f f5a7 833e d9de 2f3f
000000c0: ac7f 383f 2bbc 04be ab49 a73e cc50 4bbd
000000d0: 4bcb 41bd 2489 46bd 8a15 88be 4116 093e
000000e0: d045 49bb b652 ab3e b956 92be 9681 293f
000000f0: a4e7 a93d 8470 7c3e b821 06bf d683 a73e
00000100: 4301 1bbe a146 063e 7fb5 c73d ad2c 42be
00000110: dcff 0a3d 0c7d 3dbd 3248 3fbe 97b2 08be
00000120: daf7 94be 26b6 65bd 03f9 f0bd 1a34 a73e
00000130: 2867 8b3e 504b c4bc 4d27 2bbe 2fed 823e
00000140: 4fc3 17bf 3654 0f3e 68f8 80bf f3c1 2a3f
00000150: 1171 daba ec18 dcbd 46ce e83c 6bc7 213e
00000160: 96a7 02be caa7 2cbd 3e92 80bf b4e0 bcbe
00000170: d5ae 503e e716 7a3f 3aa3 2a3f 6e84 b9bc
00000180: e30d 733e 647e 2dbe a9cc 7c3e 3a25 e83d
00000190: 2aca 963d 1065 743e ec7a 37be ebb7 943e
000001a0: ab65 26bb 905d 773b ac76 843e d891 00bd
000001b0: e0ed 603c af77 57bc 359f 2d3f e3b4 293f
000001c0: 58e0 8c3e fddc 4d3d f1f0 cd3d 2852 783e
000001d0: cbd9 64be 5c4c 463e 836d 6bbc 0407 82be
000001e0: f693 7fbf cdaf 673e c15c b0bd fd3e 6f3e
000001f0: 4d29 36be 7b9c c93e b677 723f 72c7 74be
00000200: f12b ea3d a2ac 00bd d62a c83e 63d5 893f
00000210: 952a e93e e734 9a3f 5358 43be f9b1 21be
00000220: c282 e03e fb5f 11bc 528f a5be 8625 26bf
00000230: 6f1f 5c3e 5020 ec3e e5c5 b6bd 9263 22bf
00000240: 2b64 1abc 7e1b 04be 394e 8fbe 259b 823d
00000250: 2f18 37be 82f1 5cbe e756 113f a051 d4bd
00000260: b4a3 d93c ff88 dfbd 7210 ed3d 8c59 553e
00000270: 87b7 4d3f 660f dabe 91af a3be a5be 323f
00000280: 8c19 3c3f 9025 57be f832 473f 7504 853d
00000290: 2738 6f3e 1b52 dd3e 82b7 633c 5d85 c83c
000002a0: b2bd 843e abf8 eb3d 0a18 9d3e ff3b 623e
000002b0: 42a6 70be 01bb c2bd 8c48 5dbd 33a5 debe
000002c0: 95af bb3d 2195 7e3b 45ef 6abe 50d0 9b3e
000002d0: 2bb5 4dbe f375 e4bd bf2b 1bbc a6fc 66be
000002e0: 7592 293e aff9 98bd 4c00 bcbd f06b 8ebe
000002f0: 2fd2 aabe 671e 933e 32d6 593b 6c6f 1f3f
00000300: 81b6 06bf bf14 b8be e119 8b3f c521 e23d
00000310: 4911 39bd a93a 4cbe 359e 46bd 3597 743d
00000320: e964 403d 100d a6bd 2c68 403f 491f 313e
00000330: e2a9 183e aad1 23bf 8a41 c3be 8891 373d
00000340: d568 2fbe 0d5a ba3d 4bdc 3b3e cbda 53be
00000350: c2cf b43e 1f7a 903f b29f 863d 34b3 323f
00000360: 48ca b73e fc8c 6cbe 7e6f 0fbd c0ce c7bd
00000370: 0aee 24bf 8565 00be 9e72 64be 96cf 48bf
00000380: ee4e 06bf a221 f93e 6e8d da3d b9a0 663e
00000390: f08c b6bc c415 3d3f 1834 273f cb9d 5cbd
000003a0: 8e61 da3c 233a 193f 0b46 b8be 67ff 473e
000003b0: 0eaf e33e 720d b63d 449f 80be 9327 03bf
000003c0: 6406 98bc 48bf e53e e5fb f7bd a074 e4bd
000003d0: 70de 57be a531 8e3f d22e 653e a7b7 0cbe
000003e0: 1e5f 0cbe 6c2b 9e3d 0c48 ba3d 3b24 7a3f
000003f0: 3cc8 b5be 5cae 2fbd ddec 783e bfe6 833f
0.91423243 -0.08019561 0.23188312 -0.01797653 0.124113426 -0.3185127 -0.02085439 0.22410123
0.35483563 -0.3262549 0.46982986 0.28014386 0.29778138 0.04424177 -0.016813075 1.0651056
0.09267114 -0.063747615 0.06335314 -0.42198515 0.4660622 -1.170211 -0.07698088 0.20643482
-0.054519944 0.16266821 0.11111636 -0.38218865 -0.12186961 0.0012952471 -0.10356992 0.6004347
-0.48095313 0.025141785 0.20499419 0.22246228 0.41242158 0.17568961 0.46984014 1.2070196
0.010066357 -0.21885808 -0.02056243 -0.07084317 0.75864476 0.7452555 0.2571408 0.68699414
0.7206981 -0.12962405 0.32673392 -0.0496376 -0.047313016 -0.04847063 -0.26578933 0.13387395
-0.0030711778 0.3346154 -0.2858179 0.6621336 0.08296135 0.24652296 -0.523952 0.3271777
-0.151372 0.1311288 0.097514145 -0.18962355 0.033935413 -0.046261832 -0.18679884 -0.13349377
-0.29095346 -0.056081913 -0.11766245 0.32656938 0.2722714 -0.023961693 -0.16714211 0.25571582
-0.5928239 0.13996968 -1.0075808 0.66702193 -0.0016665776 -0.10746941 0.028418671 0.15798728
-0.12759241 -0.042152204 -1.004463 -0.36890185 0.20379193 0.97691196 0.66655314 -0.022646155
0.23735766 -0.16942745 0.24687447 0.113352254 0.073627785 0.23866677 -0.17917985 0.29046568
-0.0025390189 0.0037744977 0.2587179 -0.031389087 0.013728589 -0.013151093 0.67821056 0.66291636
0.2751491 0.05025958 0.100557216 0.2425009 -0.22348706 0.19365066 -0.014369371 -0.25395977
-0.99835145 0.22625656 -0.086114414 0.23363872 -0.17789192 0.39377198 0.94713914 -0.23904207
0.114341624 -0.031414635 0.3909518 1.0768245 0.455403 1.2047395 -0.19076662 -0.15790547
0.4384976 -0.008872981 -0.32335907 -0.64901006 0.21496366 0.46118402 -0.08924464 -0.6343318
-0.009423296 -0.12901112 -0.27989367 0.06377248 -0.17880319 -0.21576503 0.5677323 -0.10367131
0.026567318 -0.10914802 0.11575402 0.2083494 0.80358166 -0.42589873 -0.31969884 0.6982215
0.7347648 -0.21010423 0.7781215 0.06494991 0.23361264 0.43226704 0.013898732 0.024477655
0.25925976 0.11522039 0.30682403 0.22093199 -0.23500922 -0.095083244 -0.054024264 -0.43485412
0.09164349 0.0038846212 -0.22942837 0.30432367 -0.20088641 -0.111553095 -0.009470879 -0.22557315
0.16559775 -0.07469498 -0.09179744 -0.27816725 -0.33363482 0.28734133 0.0033239243 0.6227939
-0.5262223 -0.35953328 1.0867273 0.11041597 -0.0451825 -0.19944252 -0.04849072 0.059714515
0.046971235 -0.0810796 0.75158954 0.1729709 0.14908555 -0.63991797 -0.3813594 0.044816524
-0.17129834 0.09099207 0.18345754 -0.20688932 0.35314757 1.1287268 0.06573428 0.6980469
0.35896516 -0.23100656 -0.035018437 -0.09756231 -0.6442572 -0.12538727 -0.22309348 -0.7844175
-0.5246419 0.48658472 0.10671507 0.22522248 -0.022284001 0.73861337 0.65313864 -0.05386142
0.026657846 0.59854335 -0.3599094 0.19531022 0.44469494 0.08889283 -0.2512151 -0.5123226
-0.018557735 0.448725 -0.12108592 -0.11155057 -0.21080947 1.11089 0.22381142 -0.13741933
-0.1370816 0.07723126 0.09095773 0.97711533 -0.3550433 -0.04289089 0.24309106 1.0304793

l1.bias f4 [8]
00000000: ab74 803f 82b3 213f b9f0 063f 6c2b 533f
00000010: c16e 6e3f 3f6c 393f ed4c 2a3f 70a9 433f
1.0035604 0.6316453 0.52711064 0.8248813 0.9313775 0.72430795 0.6652363 0.76430416

l2.weight f4 [8, 8]
00000000: dd3a 033e 38cb 7e3f d4d8 08bf 5aa9 193f
00000010: 35b2 8c3e 06fa a43f 8667 a2bf 7788 663f
00000020: b891 0f40 c723 64bf 14d6 b3bf 647d b43e
00000030: b923 9a3f d122 f03e 33b3 2cbf 4866 6abe
00000040: c8e8 2d3f c04c 103f a2f1 11bf 14e0 b43f
00000050: 9a8c d33f 508a babf 909f 953f f956 b23f
00000060: a9a7 37bf 9680 73bf 0a11 0040 300d 333f
00000070: 26ae 373f ce4b 7f3f 3fb9 033d f2f1 553f
00000080: 8bc5 cdbd 85e6 a2bd 2d55 6b3f d1dc 97be
00000090: e36b 0abf 37f7 9a3f 84c6 fb3f e232 733f
000000a0: d349 acbf 7c25 b43f 9550 573e b283 b03f
000000b0: 6fb4 863f 9d25 b73d f92f 9bbe 20fd 0f3f
000000c0: 59b3 5bbc e1a6 0b3f ae4d cb3f 31dc 483f
000000d0: d03d d03e 615b ba3f cf8b 44be 9c25 cfbf
000000e0: 2e22 8c3e e6cc 7ebf fde6 53be 5458 c93e
000000f0: 655d 3e3f 93fe 923f 364f 98bf b378 b73f
0.12815423 0.9952884 -0.53455853 0.60024035 0.2747971 1.2888801 -1.2687843 0.9005198
2.243269 -0.8911709 -1.4049706 0.35251915 1.2042152 0.46901563 -0.67460936 -0.2289058
0.6793332 0.5636711 -0.5700933 1.4130883 1.6527283 -1.457346 1.168932 1.3932792
-0.71740204 -0.9511808 2.00104 0.69942 0.71750104 0.99725044 0.032159086 0.83572304
-0.10047444 -0.07954124 0.9192684 -0.29660657 -0.5407087 1.2106694 1.9669957 0.94999516
-1.3460029 1.4073939 0.21026833 1.379019 1.0523814 0.08942721 -0.30310038 0.56245613
-0.013409459 0.5455151 1.5883081 0.78460985 0.4067216 1.4559137 -0.19193958 -1.6183352
0.27369827 -0.995314 -0.20693584 0.39325202 0.7436126 1.148394 -1.1899173 1.433371

l2.bias f4 [8]
00000000: ab7f 0f3d 798e 803f 85d9 203d 755f 01be
00000010: 6bf0 b53e bc4e 5fbb 8f24 373f d5ce 913e
0.035033863 1.0043479 0.039269943 -0.1263407 0.35534987 -0.003407403 0.7154016 0.28478113

l3.weight f4 [17, 8]
00000000: e676 80be 139c b23e e33e 17c0 18d1 ca3e
00000010: 0025 ecbe 7fb9 12c0 4296 763f 9c85 2a3f
00000020: 7bfb 22bd 1328 abbf 8cbf ffbe 554b f23e
00000030: 0a33 f03e 06cc c5bf ac09 6abf fd65 303f
00000040: 5606 d6bd 0ec7 793e 3179 db3e d875 583d
00000050: a0c6 a0be dc31 e5be c3b7 e0bf 1920 593e
00000060: c52d 113f 1c92 163e 457a 4fbf d5b2 623e
00000070: f520 c6be fd13 1ebf cbbd c4be ca4d 563f
00000080: b570 d63e 2fa5 25bf f303 f93e a675 0cbf
00000090: 5516 fcbf 2fd6 203f e80c 0c3f 7b0a 06c0
000000a0: bb0b 74bf 8b99 5e3c e480 11c0 32c7 d5bd
000000b0: 714a 4a3f f400 1dbf 5f3f dc3e 97a0 36bf
000000c0: 9264 8c3e 4f9b 5cbf 044f 66be e40e c63e
000000d0: e3a8 babf e0ca 353f 5221 6fbe 8d3f c73e
000000e0: 7a3b dbbf 657e e6be 0d9b b73e 363e f03e
000000f0: ecea 7bbf f4e2 a73d 0b71 083f 650b 1ebd
00000100: 9199 0bc0 9f73 b4bf e825 09bf 696a 703f
00000110: cb44 903e 4a36 63be b2bc 85bd e073 a3bf
00000120: b80c a9bf 260e 4cbf bbeb 4c3f c15b babe
00000130: c949 593f 4713 08c0 ae72 d3bf 30ba a1bf
00000140: 27a1 55bf 62b6 5e3f eb94 393f 6d43 7bbf
00000150: 2e09 24bf 1d32 09c0 f455 67be 4985 63bf
00000160: 8eb4 333f f723 b83e 6faa a63e 9682 55be
00000170: 218a 01c0 be50 b73d 50ee 6fbf 0c6b 413e
00000180: 5d87 133f 9f9d 7dbf ec28 d5bf d676 b93e
00000190: 5b8a 53bf f51b 093e 6f5a 5c3f a00f a2be
000001a0: 016c c83d 778f aebf 18c8 313f 1cd9 31be
000001b0: 42d7 90be 7a5c 2a3f 3eed e9bf bde0 aebf
000001c0: a0b5 11c0 0356 9abf a6a1 913e 2f01 d1bf
000001d0: 2921 353e 178b 7f3e 68a9 d53e 0175 04bf
000001e0: 5ee3 e53e 1804 8f3f be22 9bbe 97b6 a2bf
000001f0: 30c4 adbf bc5d 28c0 cbab 35bd 8966 3d3f
00000200: 24be 883f 9920 39bf 455b 44bf 1c49 00c0
00000210: 344d b73d cfb4 893e 89c3 973e 50f8 85bf
-0.25090712 0.348847 -2.3632133 0.3961265 -0.4612198 -2.2925718 0.96323025 0.6661012
-0.03979061 -1.3371605 -0.49950826 0.473231 0.4691394 -1.5452888 -0.9142101 0.6890562
-0.10450427 0.2439234 0.428659 0.05284676 -0.3140154 -0.44764602 -1.755608 0.2120365
0.56710464 0.14704174 -0.81045943 0.22138532 -0.3869702 -0.6174925 -0.3842605 0.83712447
0.41882864 -0.64705175 0.48635826 -0.5486702 -1.9694315 0.6282682 0.54707193 -2.0943897
-0.953304 0.013586412 -2.2734919 -0.10438384 0.7901984 -0.6132958 0.43017098 -0.7133879
0.2742048 -0.8617448 -0.2249108 0.38683236 -1.458279 0.7101269 -0.23352554 0.38915673
-1.7127526 -0.45018306 0.35860482 0.46922463 -0.9840534 0.08197585 0.5329749 -0.038585085
-2.181248 -1.4097785 -0.53573465 0.9391237 0.28177485 -0.22188678 -0.065301314 -1.2769737
-1.3207006 -0.7970909 0.80047196 -0.36398128 0.8487821 -2.1261766 -1.6519372 -1.2634945
-0.83449024 0.86997044 0.72492856 -0.9814976 -0.6407651 -2.1436837 -0.22591382 -0.8887525
0.7019738 0.3596494 0.32551906 -0.20850596 -2.0240557 0.08950947 -0.9372301 0.18888491
0.5762842 -0.99068636 -1.6653113 0.36223477 -0.8263299 0.13389571 0.8607549 -0.31652546
0.09786225 -1.3637532 0.69445944 -0.17367977 -0.2828923 0.6654736 -1.8275526 -1.3662335
-2.2767105 -1.2057499 0.2844364 -1.6328486 0.17688431 0.24955402 0.4173081 -0.51741034
0.4490003 1.1173124 -0.30299944 -1.2711972 -1.3575497 -2.630721 -0.044353288 0.7398458
1.0683026 -0.72315365 -0.76701766 -2.0044622 0.08950272 0.26895759 0.2964137 -1.0466404

l3.bias f4 [17]
00000000: b41a be3d c6a1 ee39 23f3 97be 04a4 febe
00000010: 23c9 ccbd b7d8 dd3e 789d 0fbf 322e 0cbf
00000020: d2ab b4be 407e 7a3e a3d5 883e 5031 9f3e
00000030: 3f7b 3abe 626e 38bd 1409 cc3e 0718 0a3f
00000040: fe68 b93d
0.09282437 0.00045515428 -0.29677686 -0.4973451 -0.09999301 0.43329403 -0.56099653 -0.5475799
-0.35287338 0.24462223 0.26725492 0.3109231 -0.18211077 -0.045027144 0.39850676 0.5394291
0.09053229
